…
Volumes       121508 non-null float64
High          121508 non-null float64
Low           121508 non-null float64
RSI           121508 non-null float64
ADL           121508 non-null int64
ADL_slope     121508 non-null float64
OBV           121508 non-null int64
OBV_slope     121508 non-null float64
dtypes: float64(7), int64(4)
memory usage: 10.2 MB

['High'] vs. Prices Analysis

Model: "sequential"
_________________________________________________________________
Layer (type)                 Output Shape              Param #
=================================================================
lstm (LSTM)                  (None, 1, 200)            161600
_________________________________________________________________
dropout (Dropout)            (None, 1, 200)            0
_________________________________________________________________
lstm_1 (LSTM)                (None, 1, 200)            320800
_________________________________________________________________
dropout_1 (Dropout)          (None, 1, 200)            0
_________________________________________________________________
lstm_2 (LSTM)                (None, 1, 200)            320800
_________________________________________________________________
dropout_2 (Dropout)          (None, 1, 200)            0
_________________________________________________________________
lstm_3 (LSTM)                (None, 1, 200)            320800
_________________________________________________________________
dropout_3 (Dropout)          (None, 1, 200)            0
_________________________________________________________________
lstm_4 (LSTM)                (None, 1, 200)            320800
_________________________________________________________________
dropout_4 (Dropout)          (None, 1, 200)            0
_________________________________________________________________
dense (Dense)                (None, 1, 1)              201
=================================================================
Total params: 1,445,001
Trainable params: 1,445,001
Non-trainable params: 0
_________________________________________________________________
Train on 58323 samples, validate on 14581 samples
Epoch 1/100
58323/58323 [==============================] - 28s 485us/sample - loss: 95045727.8074 - mse: 95045704.0000 - mape: 98.3419 - val_loss: 92318930.3313 - val_mse: 92318936.0000 - val_mape: 96.8869
…
