…
Volumes       114189 non-null float64
High          114189 non-null float64
Low           114189 non-null float64
RSI           114189 non-null float64
ADL           114189 non-null int64
ADL_slope     114189 non-null float64
OBV           114189 non-null int64
OBV_slope     114189 non-null float64
dtypes: float64(7), int64(4)
memory usage: 9.6 MB

[Low + RSI] vs. Prices Analysis

Model: "sequential"
_________________________________________________________________
Layer (type)                 Output Shape              Param #
=================================================================
lstm (LSTM)                  (None, 2, 250)            252000
_________________________________________________________________
dropout (Dropout)            (None, 2, 250)            0
_________________________________________________________________
lstm_1 (LSTM)                (None, 2, 250)            501000
_________________________________________________________________
dropout_1 (Dropout)          (None, 2, 250)            0
_________________________________________________________________
lstm_2 (LSTM)                (None, 2, 250)            501000
_________________________________________________________________
dropout_2 (Dropout)          (None, 2, 250)            0
_________________________________________________________________
lstm_3 (LSTM)                (None, 2, 250)            501000
_________________________________________________________________
dropout_3 (Dropout)          (None, 2, 250)            0
_________________________________________________________________
lstm_4 (LSTM)                (None, 2, 250)            501000
_________________________________________________________________
dropout_4 (Dropout)          (None, 2, 250)            0
_________________________________________________________________
lstm_5 (LSTM)                (None, 250)               501000
_________________________________________________________________
dropout_5 (Dropout)          (None, 250)               0
_________________________________________________________________
dense (Dense)                (None, 1)                 251
=================================================================
Total params: 2,757,251
Trainable params: 2,757,251
Non-trainable params: 0
_________________________________________________________________
None
Train on 51384 samples, validate on 17129 samples
Epoch 1/100
51384/51384 [==============================] - 48s 940us/sample - loss: 96095478.4904 - mse: 96095472.0000 - mape: 97.7984 - val_loss: 92308975.8571 - val_mse: 92308968.0000 - val_mape: 95.8342
…
