…
Prices        104785 non-null float64
Volumes       104785 non-null float64
High          104785 non-null float64
Low           104785 non-null float64
RSI           104785 non-null float64
ADL           104785 non-null int64
ADL_slope     104785 non-null float64
OBV           104785 non-null int64
OBV_slope     104785 non-null float64
dtypes: float64(7), int64(4)
memory usage: 8.8 MB

Model: "sequential"
_________________________________________________________________
Layer (type)                 Output Shape              Param #
=================================================================
lstm (LSTM)                  (None, 2, 200)            161600
_________________________________________________________________
lstm_1 (LSTM)                (None, 2, 200)            320800
_________________________________________________________________
lstm_2 (LSTM)                (None, 2, 200)            320800
_________________________________________________________________
lstm_3 (LSTM)                (None, 2, 200)            320800
_________________________________________________________________
dropout (Dropout)            (None, 2, 200)            0
_________________________________________________________________
lstm_4 (LSTM)                (None, 2, 200)            320800
_________________________________________________________________
dropout_1 (Dropout)          (None, 2, 200)            0
_________________________________________________________________
lstm_5 (LSTM)                (None, 200)               320800
_________________________________________________________________
dropout_2 (Dropout)          (None, 200)               0
_________________________________________________________________
dense (Dense)                (None, 1)                 201
=================================================================
Total params: 1,765,801
Trainable params: 1,765,801
Non-trainable params: 0
_________________________________________________________________
None
Train on 47153 samples, validate on 15718 samples
Epoch 1/100
47153/47153 [==============================] - 37s 786us/sample - loss: 99805909.3222 - mse: 99805912.0000 - mape: 98.3541 - val_loss: 96963960.0753 - val_mse: 96963920.0000 - val_mape: 96.9259
…
