…
High         101181 non-null float64
Low          101181 non-null float64
RSI          101181 non-null float64
ADL          101181 non-null int64
ADL_slope    101181 non-null float64
OBV          101181 non-null int64
OBV_slope    101181 non-null float64
dtypes: float64(7), int64(3)
memory usage: 7.7 MB

[OBV, OBV_slope] Analysis

(101181, 2)
(101181,)
Model: "sequential"
_________________________________________________________________
Layer (type)                 Output Shape              Param #   
=================================================================
lstm (LSTM)                  (None, 2, 200)            161600    
_________________________________________________________________
dropout (Dropout)            (None, 2, 200)            0         
_________________________________________________________________
lstm_1 (LSTM)                (None, 2, 200)            320800    
_________________________________________________________________
dropout_1 (Dropout)          (None, 2, 200)            0         
_________________________________________________________________
lstm_2 (LSTM)                (None, 2, 200)            320800    
_________________________________________________________________
dropout_2 (Dropout)          (None, 2, 200)            0         
_________________________________________________________________
lstm_3 (LSTM)                (None, 2, 200)            320800    
_________________________________________________________________
dropout_3 (Dropout)          (None, 2, 200)            0         
_________________________________________________________________
lstm_4 (LSTM)                (None, 2, 200)            320800    
_________________________________________________________________
dropout_4 (Dropout)          (None, 2, 200)            0         
_________________________________________________________________
lstm_5 (LSTM)                (None, 200)               320800    
_________________________________________________________________
dropout_5 (Dropout)          (None, 200)               0         
_________________________________________________________________
dense (Dense)                (None, 1)                 201       
=================================================================
Total params: 1,765,801
Trainable params: 1,765,801
Non-trainable params: 0
_________________________________________________________________
None
Train on 60708 samples, validate on 40473 samples
Epoch 1/300
60708/60708 [==============================] - 48s 797us/sample - loss: 100247871.5098 - mae: 9938.7422 - mape: 97.9454 - val_loss: 96681246.4203 - val_mae: 9758.6484 - val_mape: 96.1122
…
