…
Volumes      101579 non-null float64
High         101579 non-null float64
Low          101579 non-null float64
RSI          101579 non-null float64
ADL          101579 non-null int64
ADL_slope    101579 non-null float64
OBV          101579 non-null int64
OBV_slope    101579 non-null float64
dtypes: float64(7), int64(3)
memory usage: 7.7 MB

[ADL, ADL_slope] Analysis

(101579, 2)
(101579,)
Model: "sequential"
_________________________________________________________________
Layer (type)                 Output Shape              Param #
=================================================================
lstm (LSTM)                  (None, 2, 200)            161600
_________________________________________________________________
dropout (Dropout)            (None, 2, 200)            0
_________________________________________________________________
lstm_1 (LSTM)                (None, 2, 200)            320800
_________________________________________________________________
dropout_1 (Dropout)          (None, 2, 200)            0
_________________________________________________________________
lstm_2 (LSTM)                (None, 2, 200)            320800
_________________________________________________________________
dropout_2 (Dropout)          (None, 2, 200)            0
_________________________________________________________________
lstm_3 (LSTM)                (None, 2, 200)            320800
_________________________________________________________________
dropout_3 (Dropout)          (None, 2, 200)            0
_________________________________________________________________
lstm_4 (LSTM)                (None, 2, 200)            320800
_________________________________________________________________
dropout_4 (Dropout)          (None, 2, 200)            0
_________________________________________________________________
lstm_5 (LSTM)                (None, 200)               320800
_________________________________________________________________
dropout_5 (Dropout)          (None, 200)               0
_________________________________________________________________
dense (Dense)                (None, 1)                 201
=================================================================
Total params: 1,765,801
Trainable params: 1,765,801
Non-trainable params: 0
_________________________________________________________________
None
Train on 60947 samples, validate on 40632 samples
Epoch 1/100
60947/60947 [==============================] - 54s 880us/sample - loss: 100092100.7603 - mae: 9930.0400 - mape: 97.9481 - val_loss: 96530771.2526 - val_mae: 9750.1504 - val_mape: 96.1097
…
