…
High          101755 non-null float64
Low           101755 non-null float64
RSI           101755 non-null float64
ADL           101755 non-null int64
ADL_slope     101755 non-null float64
OBV           101755 non-null int64
OBV_slope     101755 non-null float64
dtypes: float64(7), int64(4)
memory usage: 8.5 MB

[RSI, Prices] Analysis

(101755, 2)
(101755,)
Model: "sequential"
_________________________________________________________________
Layer (type)                 Output Shape              Param #
=================================================================
lstm (LSTM)                  (None, 2, 200)            161600
_________________________________________________________________
dropout (Dropout)            (None, 2, 200)            0
_________________________________________________________________
lstm_1 (LSTM)                (None, 2, 200)            320800
_________________________________________________________________
dropout_1 (Dropout)          (None, 2, 200)            0
_________________________________________________________________
lstm_2 (LSTM)                (None, 2, 200)            320800
_________________________________________________________________
dropout_2 (Dropout)          (None, 2, 200)            0
_________________________________________________________________
lstm_3 (LSTM)                (None, 2, 200)            320800
_________________________________________________________________
dropout_3 (Dropout)          (None, 2, 200)            0
_________________________________________________________________
lstm_4 (LSTM)                (None, 2, 200)            320800
_________________________________________________________________
dropout_4 (Dropout)          (None, 2, 200)            0
_________________________________________________________________
lstm_5 (LSTM)                (None, 200)               320800
_________________________________________________________________
dropout_5 (Dropout)          (None, 200)               0
_________________________________________________________________
dense (Dense)                (None, 1)                 201
=================================================================
Total params: 1,765,801
Trainable params: 1,765,801
Non-trainable params: 0
_________________________________________________________________
None
Train on 61053 samples, validate on 40702 samples
Epoch 1/100
61053/61053 [==============================] - 50s 822us/sample - loss: 100002590.2586 - mae: 9925.3281 - mape: 97.9363 - val_loss: 96420696.4926 - val_mae: 9744.0820 - val_mape: 96.0914
…
