…
High          101755 non-null float64
Low           101755 non-null float64
RSI           101755 non-null float64
ADL           101755 non-null int64
ADL_slope     101755 non-null float64
OBV           101755 non-null int64
OBV_slope     101755 non-null float64
dtypes: float64(7), int64(4)
memory usage: 8.5 MB

[High, Low, RSI] Analysis

(101755, 2)
(101755,)
Model: "sequential"
_________________________________________________________________
Layer (type)                 Output Shape              Param #
=================================================================
lstm (LSTM)                  (None, 2, 200)            161600
_________________________________________________________________
dropout (Dropout)            (None, 2, 200)            0
_________________________________________________________________
lstm_1 (LSTM)                (None, 2, 200)            320800
_________________________________________________________________
dropout_1 (Dropout)          (None, 2, 200)            0
_________________________________________________________________
lstm_2 (LSTM)                (None, 2, 200)            320800
_________________________________________________________________
dropout_2 (Dropout)          (None, 2, 200)            0
_________________________________________________________________
lstm_3 (LSTM)                (None, 2, 200)            320800
_________________________________________________________________
dropout_3 (Dropout)          (None, 2, 200)            0
_________________________________________________________________
lstm_4 (LSTM)                (None, 200)               320800
_________________________________________________________________
dropout_4 (Dropout)          (None, 200)               0
_________________________________________________________________
dense (Dense)                (None, 1)                 201
=================================================================
Total params: 1,445,001
Trainable params: 1,445,001
Non-trainable params: 0
_________________________________________________________________
None
Train on 61053 samples, validate on 40702 samples
Epoch 1/100
61053/61053 [==============================] - 42s 680us/sample - loss: w.0594 - mae: 9923.5127 - mape: 97.9189 - val_loss: 96382808.6156 - val_mae: 9742.1387 - val_mape: 96.0720
…
