…
High          104785 non-null float64
Low           104785 non-null float64
RSI           104785 non-null float64
ADL           104785 non-null int64
ADL_slope     104785 non-null float64
OBV           104785 non-null int64
OBV_slope     104785 non-null float64
dtypes: float64(7), int64(4)
memory usage: 8.8 MB

[High, Low, RSI] Analysis

(104785, 3)
(104785,)
Model: "sequential"
_________________________________________________________________
Layer (type)                 Output Shape              Param #
=================================================================
lstm (LSTM)                  (None, 3, 200)            161600
_________________________________________________________________
dropout (Dropout)            (None, 3, 200)            0
_________________________________________________________________
lstm_1 (LSTM)                (None, 3, 200)            320800
_________________________________________________________________
dropout_1 (Dropout)          (None, 3, 200)            0
_________________________________________________________________
lstm_2 (LSTM)                (None, 3, 200)            320800
_________________________________________________________________
dropout_2 (Dropout)          (None, 3, 200)            0
_________________________________________________________________
lstm_3 (LSTM)                (None, 3, 200)            320800
_________________________________________________________________
dropout_3 (Dropout)          (None, 3, 200)            0
_________________________________________________________________
lstm_4 (LSTM)                (None, 200)               320800
_________________________________________________________________
dropout_4 (Dropout)          (None, 200)               0
_________________________________________________________________
dense (Dense)                (None, 1)                 201
=================================================================
Total params: 1,445,001
Trainable params: 1,445,001
Non-trainable params: 0
_________________________________________________________________
None
Train on 62871 samples, validate on 41914 samples
Epoch 1/100
62871/62871 [==============================] - 52s 833us/sample - loss: 98727028.9169 - mse: 98727152.0000 - mae: 9857.5088 - mape: 97.8066 - val_loss: 94947830.0467 - val_mse: 94947808.0000 - val_mae: 9665.0029 - val_mape: 95.8370
…
