…
Volumes       121508 non-null float64
High          121508 non-null float64
Low           121508 non-null float64
RSI           121508 non-null float64
ADL           121508 non-null int64
ADL_slope     121508 non-null float64
OBV           121508 non-null int64
OBV_slope     121508 non-null float64
dtypes: float64(7), int64(4)
memory usage: 10.2 MB

[Prices + High] vs. Prices Analysis

Model: "sequential"
_________________________________________________________________
Layer (type)                 Output Shape              Param #
=================================================================
lstm (LSTM)                  (None, 2, 200)            161600
_________________________________________________________________
dropout (Dropout)            (None, 2, 200)            0
_________________________________________________________________
lstm_1 (LSTM)                (None, 2, 200)            320800
_________________________________________________________________
dropout_1 (Dropout)          (None, 2, 200)            0
_________________________________________________________________
lstm_2 (LSTM)                (None, 2, 200)            320800
_________________________________________________________________
dropout_2 (Dropout)          (None, 2, 200)            0
_________________________________________________________________
lstm_3 (LSTM)                (None, 2, 200)            320800
_________________________________________________________________
dropout_3 (Dropout)          (None, 2, 200)            0
_________________________________________________________________
lstm_4 (LSTM)                (None, 2, 200)            320800
_________________________________________________________________
dropout_4 (Dropout)          (None, 2, 200)            0
_________________________________________________________________
lstm_5 (LSTM)                (None, 200)               320800
_________________________________________________________________
dropout_5 (Dropout)          (None, 200)               0
_________________________________________________________________
dense (Dense)                (None, 1)                 201
=================================================================
Total params: 1,765,801
Trainable params: 1,765,801
Non-trainable params: 0
_________________________________________________________________
None
Train on 54678 samples, validate on 18226 samples
Epoch 1/100
54678/54678 [==============================] - 42s 768us/sample - loss: 94513742.3587 - mse: 94513648.0000 - mape: 98.0759 - val_loss: 91526909.4814 - val_mse: 91526896.0000 - val_mape: 96.3801
…
