…
Volumes       121508 non-null float64
High          121508 non-null float64
Low           121508 non-null float64
RSI           121508 non-null float64
ADL           121508 non-null int64
ADL_slope     121508 non-null float64
OBV           121508 non-null int64
OBV_slope     121508 non-null float64
dtypes: float64(7), int64(4)
memory usage: 10.2 MB

[High, Prices] vs. Prices Analysis

Model: "sequential"
_________________________________________________________________
Layer (type)                 Output Shape              Param #
=================================================================
lstm (LSTM)                  (None, 2, 200)            161600
_________________________________________________________________
dropout (Dropout)            (None, 2, 200)            0
_________________________________________________________________
lstm_1 (LSTM)                (None, 2, 200)            320800
_________________________________________________________________
dropout_1 (Dropout)          (None, 2, 200)            0
_________________________________________________________________
lstm_2 (LSTM)                (None, 2, 200)            320800
_________________________________________________________________
dropout_2 (Dropout)          (None, 2, 200)            0
_________________________________________________________________
lstm_3 (LSTM)                (None, 2, 200)            320800
_________________________________________________________________
dropout_3 (Dropout)          (None, 2, 200)            0
_________________________________________________________________
lstm_4 (LSTM)                (None, 2, 200)            320800
_________________________________________________________________
dropout_4 (Dropout)          (None, 2, 200)            0
_________________________________________________________________
lstm_5 (LSTM)                (None, 2, 200)            320800
_________________________________________________________________
dropout_5 (Dropout)          (None, 2, 200)            0
_________________________________________________________________
lstm_6 (LSTM)                (None, 200)               320800
_________________________________________________________________
dropout_6 (Dropout)          (None, 200)               0
_________________________________________________________________
dense (Dense)                (None, 1)                 201
=================================================================
Total params: 2,086,601
Trainable params: 2,086,601
Non-trainable params: 0
_________________________________________________________________
Train on 58323 samples, validate on 14581 samples
Epoch 1/100
58323/58323 [==============================] - 56s 953us/sample - loss: 94365547.8560 - mse: 94365544.0000 - mape: 97.9767 - val_loss: 91003414.1269 - val_mse: 91003432.0000 - val_mape: 96.1674
…
