…
Volumes       114189 non-null float64
High          114189 non-null float64
Low           114189 non-null float64
RSI           114189 non-null float64
ADL           114189 non-null int64
ADL_slope     114189 non-null float64
OBV           114189 non-null int64
OBV_slope     114189 non-null float64
dtypes: float64(7), int64(4)
memory usage: 9.6 MB

[ADL + ADL_slope] vs. Prices Analysis

Model: "sequential"
_________________________________________________________________
Layer (type)                 Output Shape              Param #
=================================================================
lstm (LSTM)                  (None, 2, 200)            161600
_________________________________________________________________
dropout (Dropout)            (None, 2, 200)            0
_________________________________________________________________
lstm_1 (LSTM)                (None, 2, 200)            320800
_________________________________________________________________
dropout_1 (Dropout)          (None, 2, 200)            0
_________________________________________________________________
lstm_2 (LSTM)                (None, 2, 200)            320800
_________________________________________________________________
dropout_2 (Dropout)          (None, 2, 200)            0
_________________________________________________________________
lstm_3 (LSTM)                (None, 2, 200)            320800
_________________________________________________________________
dropout_3 (Dropout)          (None, 2, 200)            0
_________________________________________________________________
lstm_4 (LSTM)                (None, 200)               320800
_________________________________________________________________
dropout_4 (Dropout)          (None, 200)               0
_________________________________________________________________
dense (Dense)                (None, 1)                 201
=================================================================
Total params: 1,445,001
Trainable params: 1,445,001
Non-trainable params: 0
_________________________________________________________________
None
Train on 51384 samples, validate on 17129 samples
Epoch 1/100
51384/51384 [==============================] - 35s 672us/sample - loss: 96818186.7601 - mse: 96818200.0000 - mape: 98.1795 - val_loss: 93708808.8631 - val_mse: 93708824.0000 - val_mape: 96.5842
…
