…
Volumes       104785 non-null float64
High          104785 non-null float64
Low           104785 non-null float64
RSI           104785 non-null float64
ADL           104785 non-null int64
ADL_slope     104785 non-null float64
OBV           104785 non-null int64
OBV_slope     104785 non-null float64
dtypes: float64(7), int64(4)
memory usage: 8.8 MB

[Volumes] Analysis

Model: "sequential"
_________________________________________________________________
Layer (type)                 Output Shape              Param #
=================================================================
lstm (LSTM)                  (None, 1, 150)            91200
_________________________________________________________________
dropout (Dropout)            (None, 1, 150)            0
_________________________________________________________________
lstm_1 (LSTM)                (None, 1, 200)            280800
_________________________________________________________________
dropout_1 (Dropout)          (None, 1, 200)            0
_________________________________________________________________
lstm_2 (LSTM)                (None, 1, 200)            320800
_________________________________________________________________
dropout_2 (Dropout)          (None, 1, 200)            0
_________________________________________________________________
lstm_3 (LSTM)                (None, 1, 200)            320800
_________________________________________________________________
dropout_3 (Dropout)          (None, 1, 200)            0
_________________________________________________________________
lstm_4 (LSTM)                (None, 1, 200)            320800
_________________________________________________________________
dropout_4 (Dropout)          (None, 1, 200)            0
_________________________________________________________________
lstm_5 (LSTM)                (None, 200)               320800
_________________________________________________________________
dropout_5 (Dropout)          (None, 200)               0
_________________________________________________________________
dense (Dense)                (None, 1)                 201
=================================================================
Total params: 1,655,401
Trainable params: 1,655,401
Non-trainable params: 0
_________________________________________________________________
None
Train on 47153 samples, validate on 15718 samples
Epoch 1/100
47153/47153 [==============================] - 30s 626us/sample - loss: 100418683.7363 - mse: 100418696.0000 - mape: 98.6674 - val_loss: 98110501.8908 - val_mse: 98110456.0000 - val_mape: 97.5160
…
