…
Prices       98864 non-null float64
Volumes      98864 non-null float64
High         98864 non-null float64
Low          98864 non-null float64
RSI          98864 non-null float64
ADL          98864 non-null int64
ADL_slope    98864 non-null float64
OBV          98864 non-null int64
OBV_slope    98864 non-null float64
dtypes: float64(7), int64(3)
memory usage: 7.5 MB
(98864, 2)
(98864,)
Model: "sequential"
_________________________________________________________________
Layer (type)                 Output Shape              Param #
=================================================================
lstm (LSTM)                  (None, 2, 200)            161600
_________________________________________________________________
dropout (Dropout)            (None, 2, 200)            0
_________________________________________________________________
lstm_1 (LSTM)                (None, 2, 200)            320800
_________________________________________________________________
dropout_1 (Dropout)          (None, 2, 200)            0
_________________________________________________________________
lstm_2 (LSTM)                (None, 2, 200)            320800
_________________________________________________________________
dropout_2 (Dropout)          (None, 2, 200)            0
_________________________________________________________________
lstm_3 (LSTM)                (None, 2, 200)            320800
_________________________________________________________________
dropout_3 (Dropout)          (None, 2, 200)            0
_________________________________________________________________
lstm_4 (LSTM)                (None, 200)               320800
_________________________________________________________________
dropout_4 (Dropout)          (None, 200)               0
_________________________________________________________________
dense (Dense)                (None, 1)                 201
=================================================================
Total params: 1,445,001
Trainable params: 1,445,001
Non-trainable params: 0
_________________________________________________________________
None
Train on 79091 samples, validate on 19773 samples
Epoch 1/100
79091/79091 [==============================] - 50s 638us/sample - loss: 100038183.3193 - mae: 9931.5254 - mape: 97.3939 - val_loss: 95500256.0498 - val_mae: 9701.8760 - val_mape: 95.0353
…
