…
Prices       99451 non-null float64
Volumes      99451 non-null float64
High         99451 non-null float64
Low          99451 non-null float64
RSI          99451 non-null float64
ADL          99451 non-null int64
ADL_slope    99451 non-null float64
OBV          99451 non-null int64
OBV_slope    99451 non-null float64
dtypes: float64(7), int64(3)
memory usage: 7.6 MB
(99451, 2)
(99451,)
Model: "sequential"
_________________________________________________________________
Layer (type)                 Output Shape              Param #
=================================================================
lstm (LSTM)                  (None, 2, 200)            161600
_________________________________________________________________
dropout (Dropout)            (None, 2, 200)            0
_________________________________________________________________
lstm_1 (LSTM)                (None, 2, 200)            320800
_________________________________________________________________
dropout_1 (Dropout)          (None, 2, 200)            0
_________________________________________________________________
lstm_2 (LSTM)                (None, 2, 200)            320800
_________________________________________________________________
dropout_2 (Dropout)          (None, 2, 200)            0
_________________________________________________________________
lstm_3 (LSTM)                (None, 2, 200)            320800
_________________________________________________________________
dropout_3 (Dropout)          (None, 2, 200)            0
_________________________________________________________________
lstm_4 (LSTM)                (None, 2, 200)            320800
_________________________________________________________________
dropout_4 (Dropout)          (None, 2, 200)            0
_________________________________________________________________
lstm_5 (LSTM)                (None, 200)               320800
_________________________________________________________________
dropout_5 (Dropout)          (None, 200)               0
_________________________________________________________________
dense (Dense)                (None, 1)                 201
=================================================================
Total params: 1,765,801
Trainable params: 1,765,801
Non-trainable params: 0
_________________________________________________________________
None
Train on 79560 samples, validate on 19891 samples
Epoch 1/100
79560/79560 [==============================] - 55s 694us/sample - loss: 99754252.7115 - mae: 9916.4922 - mape: 97.3925 - val_loss: 95483252.5122 - val_mae: 9699.5156 - val_mape: 95.0215
…
