…
dtypes: float64(1), int64(1), object(2)
memory usage: 3.0+ MB
<class 'pandas.core.frame.DataFrame'>
RangeIndex: 96915 entries, 0 to 96914
Data columns (total 4 columns):
Datetime    96915 non-null int64
Prices      96915 non-null float64
High        96915 non-null float64
Low         96915 non-null float64
dtypes: float64(3), int64(1)
memory usage: 3.0 MB
(96915, 2)
(96915,)
Model: "sequential"
_________________________________________________________________
Layer (type)                 Output Shape              Param #
=================================================================
lstm (LSTM)                  (None, 2, 200)            161600
_________________________________________________________________
dropout (Dropout)            (None, 2, 200)            0
_________________________________________________________________
lstm_1 (LSTM)                (None, 2, 200)            320800
_________________________________________________________________
dropout_1 (Dropout)          (None, 2, 200)            0
_________________________________________________________________
lstm_2 (LSTM)                (None, 2, 200)            320800
_________________________________________________________________
dropout_2 (Dropout)          (None, 2, 200)            0
_________________________________________________________________
lstm_3 (LSTM)                (None, 2, 200)            320800
_________________________________________________________________
dropout_3 (Dropout)          (None, 2, 200)            0
_________________________________________________________________
lstm_4 (LSTM)                (None, 2, 200)            320800
_________________________________________________________________
dropout_4 (Dropout)          (None, 2, 200)            0
_________________________________________________________________
lstm_5 (LSTM)                (None, 200)               320800
_________________________________________________________________
dropout_5 (Dropout)          (None, 200)               0
_________________________________________________________________
dense (Dense)                (None, 1)                 201
=================================================================
Total params: 1,765,801
Trainable params: 1,765,801
Non-trainable params: 0
_________________________________________________________________
None
Train on 77532 samples, validate on 19383 samples
Epoch 1/100
77532/77532 [==============================] - 60s 771us/sample - loss: 100889103.1238 - mae: 9977.4297 - mape: 97.4526 - val_loss: 96433010.8008 - val_mae: 9752.4258 - val_mape: 95.1498
…
