…
Prices       98645 non-null float64
Volumes      98645 non-null float64
High         98645 non-null float64
Low          98645 non-null float64
RSI          98645 non-null float64
ADL          98645 non-null int64
ADL_slope    98645 non-null float64
OBV          98645 non-null int64
OBV_slope    98645 non-null float64
dtypes: float64(7), int64(3)
memory usage: 7.5 MB
(98645, 9)
(98645,)
Model: "sequential"
_________________________________________________________________
Layer (type)                 Output Shape              Param #
=================================================================
lstm (LSTM)                  (None, 9, 200)            161600
_________________________________________________________________
dropout (Dropout)            (None, 9, 200)            0
_________________________________________________________________
lstm_1 (LSTM)                (None, 9, 200)            320800
_________________________________________________________________
dropout_1 (Dropout)          (None, 9, 200)            0
_________________________________________________________________
lstm_2 (LSTM)                (None, 9, 200)            320800
_________________________________________________________________
dropout_2 (Dropout)          (None, 9, 200)            0
_________________________________________________________________
lstm_3 (LSTM)                (None, 9, 200)            320800
_________________________________________________________________
dropout_3 (Dropout)          (None, 9, 200)            0
_________________________________________________________________
lstm_4 (LSTM)                (None, 200)               320800
_________________________________________________________________
dropout_4 (Dropout)          (None, 200)               0
_________________________________________________________________
dense (Dense)                (None, 1)                 201
=================================================================
Total params: 1,445,001
Trainable params: 1,445,001
Non-trainable params: 0
_________________________________________________________________
None
Train on 78916 samples, validate on 19729 samples
Epoch 1/100
78916/78916 [==============================] - 116s 1ms/sample - loss: 100247482.4123 - mae: 9942.4561 - mape: 97.4536 - val_loss: 95668779.3936 - val_mae: 9710.5547 - val_mape: 95.0952
…
