…
Prices       99741 non-null float64
Volumes      99741 non-null float64
High         99741 non-null float64
Low          99741 non-null float64
RSI          99741 non-null float64
ADL          99741 non-null int64
ADL_slope    99741 non-null float64
OBV          99741 non-null int64
OBV_slope    99741 non-null float64
dtypes: float64(7), int64(3)
memory usage: 7.6 MB
(99741, 2)
(99741,)
Model: "sequential"
_________________________________________________________________
Layer (type)                 Output Shape              Param #
=================================================================
lstm (LSTM)                  (None, 2, 200)            161600
_________________________________________________________________
dropout (Dropout)            (None, 2, 200)            0
_________________________________________________________________
lstm_1 (LSTM)                (None, 2, 200)            320800
_________________________________________________________________
dropout_1 (Dropout)          (None, 2, 200)            0
_________________________________________________________________
lstm_2 (LSTM)                (None, 2, 200)            320800
_________________________________________________________________
dropout_2 (Dropout)          (None, 2, 200)            0
_________________________________________________________________
lstm_3 (LSTM)                (None, 2, 200)            320800
_________________________________________________________________
dropout_3 (Dropout)          (None, 2, 200)            0
_________________________________________________________________
lstm_4 (LSTM)                (None, 2, 200)            320800
_________________________________________________________________
dropout_4 (Dropout)          (None, 2, 200)            0
_________________________________________________________________
lstm_5 (LSTM)                (None, 200)               320800
_________________________________________________________________
dropout_5 (Dropout)          (None, 200)               0
_________________________________________________________________
dense (Dense)                (None, 1)                 201
=================================================================
Total params: 1,765,801
Trainable params: 1,765,801
Non-trainable params: 0
_________________________________________________________________
None
Train on 79792 samples, validate on 19949 samples
Epoch 1/300
79792/79792 [==============================] - 59s 743us/sample - loss: 99689090.7592 - mae: 9912.6963 - mape: 97.3743 - val_loss: 95023424.2334 - val_mae: 9675.4873 - val_mape: 94.9875
…
