…
Volumes      100598 non-null float64
High         100598 non-null float64
Low          100598 non-null float64
RSI          100598 non-null float64
ADL          100598 non-null int64
ADL_slope    100598 non-null float64
OBV          100598 non-null int64
OBV_slope    100598 non-null float64
dtypes: float64(7), int64(3)
memory usage: 7.7 MB
(100598, 2)
(100598,)
Model: "sequential"
_________________________________________________________________
Layer (type)                 Output Shape              Param #
=================================================================
lstm (LSTM)                  (None, 2, 200)            161600
_________________________________________________________________
dropout (Dropout)            (None, 2, 200)            0
_________________________________________________________________
lstm_1 (LSTM)                (None, 2, 200)            320800
_________________________________________________________________
dropout_1 (Dropout)          (None, 2, 200)            0
_________________________________________________________________
lstm_2 (LSTM)                (None, 2, 200)            320800
_________________________________________________________________
dropout_2 (Dropout)          (None, 2, 200)            0
_________________________________________________________________
lstm_3 (LSTM)                (None, 2, 200)            320800
_________________________________________________________________
dropout_3 (Dropout)          (None, 2, 200)            0
_________________________________________________________________
lstm_4 (LSTM)                (None, 2, 200)            320800
_________________________________________________________________
dropout_4 (Dropout)          (None, 2, 200)            0
_________________________________________________________________
lstm_5 (LSTM)                (None, 200)               320800
_________________________________________________________________
dropout_5 (Dropout)          (None, 200)               0
_________________________________________________________________
dense (Dense)                (None, 1)                 201
=================================================================
Total params: 1,765,801
Trainable params: 1,765,801
Non-trainable params: 0
_________________________________________________________________
None
Train on 60358 samples, validate on 40240 samples
Epoch 1/300
60358/60358 [==============================] - 53s 875us/sample - loss: 100515239.1308 - mae: 9953.4053 - mape: 97.9530 - val_loss: 96896151.5992 - val_mae: 9770.4219 - val_mape: 96.1293
…
