…
Volumes      100016 non-null float64
High         100016 non-null float64
Low          100016 non-null float64
RSI          100016 non-null float64
ADL          100016 non-null int64
ADL_slope    100016 non-null float64
OBV          100016 non-null int64
OBV_slope    100016 non-null float64
dtypes: float64(7), int64(3)
memory usage: 7.6 MB
(100016, 1)
(100016,)
Model: "sequential"
_________________________________________________________________
Layer (type)                 Output Shape              Param #
=================================================================
lstm (LSTM)                  (None, 1, 200)            161600
_________________________________________________________________
dropout (Dropout)            (None, 1, 200)            0
_________________________________________________________________
lstm_1 (LSTM)                (None, 1, 200)            320800
_________________________________________________________________
dropout_1 (Dropout)          (None, 1, 200)            0
_________________________________________________________________
lstm_2 (LSTM)                (None, 1, 200)            320800
_________________________________________________________________
dropout_2 (Dropout)          (None, 1, 200)            0
_________________________________________________________________
lstm_3 (LSTM)                (None, 1, 200)            320800
_________________________________________________________________
dropout_3 (Dropout)          (None, 1, 200)            0
_________________________________________________________________
lstm_4 (LSTM)                (None, 1, 200)            320800
_________________________________________________________________
dropout_4 (Dropout)          (None, 1, 200)            0
_________________________________________________________________
lstm_5 (LSTM)                (None, 200)               320800
_________________________________________________________________
dropout_5 (Dropout)          (None, 200)               0
_________________________________________________________________
dense (Dense)                (None, 1)                 201
=================================================================
Total params: 1,765,801
Trainable params: 1,765,801
Non-trainable params: 0
_________________________________________________________________
None
Train on 80012 samples, validate on 20004 samples
Epoch 1/300
80012/80012 [==============================] - 41s 507us/sample - loss: 100589541.3460 - mae: 9957.8955 - mape: 97.8959 - val_loss: 97017170.8922 - val_mae: 9777.6973 - val_mape: 95.9971
…
